cnn_fashion_mnist_model_0.pth (torch, 64372 bytes, 10 tensors)

conv_block_1.0.weight f4 [16, 1, 3, 3]
0.1761233 0.22384948 -0.30316108 0.37485582 0.15282528 -0.09756338 -0.29198977 0.25835037
0.2199323 -0.22809368 0.05305764 -0.0031488999 0.23118693 0.2950665 0.20889288 -0.10411845
0.38497663 -0.18089645 -0.105628364 0.15185106 -0.113150746 -0.33982113 -0.34011006 0.18590103
-0.56750345 -0.46803248 -0.16933557 -0.6583687 -0.7351043 -0.63840777 0.22777194 -0.76180536
0.16610165 0.31040826 -0.17370959 0.35463524 0.015888492 0.22576332 -0.17481151 -0.06659609
0.23486406 -0.269171 0.10795025 0.35908663 -0.16354059 -0.14450991 0.19428365 0.060042318
0.17021143 -0.20242378 -0.33033827 -0.12948087 -0.25538743 0.27442282 0.23670971 0.375313
0.1563411 -0.096208796 0.3393677 -0.29153055 -0.23666795 -0.49486023 -0.1128941 -0.11009816
0.086882934 -0.08538062 0.2723147 -0.22743593 -0.23627527 -0.19972564 0.33763623 0.10682577
0.327561 -0.46063313 -0.5398135 -0.30133632 -0.4412231 -0.054421797 0.38027877 0.38991782
-0.165674 -0.22805873 0.17829475 -0.13407499 0.19992107 -0.07835444 0.19094875 -0.25934032
-0.16809124 0.10062811 0.3794563 0.1520995 0.15052675 0.4962737 -0.49028385 -0.7055581
0.64424837 -0.17000593 -0.48960084 -0.32253155 -0.19089007 0.0832679 -0.043997735 -0.241962
0.0078189075 -0.22769384 -0.2827989 -0.18355422 -0.47273973 -0.3349562 0.36257806 -0.22813286
-0.17739254 -0.5315026 -0.40338534 -0.37448952 -0.07472565 -0.47582248 -0.4015154 -0.3568372
-0.33483186 -0.45985952 -0.3502403 -0.4812175 -0.587262 -0.48006636 -0.022849075 -0.4258433
0.38995883 -0.2591462 0.22657484 0.2614723 -0.36147425 0.32366243 -0.19003801 -0.12767202
-0.27662313 -0.3312722 0.096182965 -0.07240761 0.13008545 -0.27358514 0.24876486 -0.24470504
00000000: ab59 343e cc38 653e ee37 9bbe 1aed bf3e
00000010: 3b7e 1c3e 4fcf c7bd af7f 95be 8046 843e
00000020: ef35 613e 6491 69be f852 593d c65d 4ebb
00000030: 44bc 6c3e f512 973e 04e8 553e 0e3c d5bd
00000040: a81b c53e eb3c 39be af53 d8bd d87e 1b3e
00000050: 94bb e7bd 09fd adbe e822 aebe d75c 3e3e
00000060: e847 11bf f4a1 efbe 4e66 2dbe da8a 28bf
00000070: cc2f 3cbf b16e 23bf 0c3d 693e ad05 43bf
00000080: 8d16 2a3e d5ed 9e3e ede0 31be c092 b53e
00000090: 9528 823c 802e 673e ca01 33be 8863 88bd
000000a0: 3480 703e c8d0 89be 0515 dd3d 34da b73e
000000b0: 2f77 27be 68fa 13be 4bf2 463e efee 753d
000000c0: e84b 2e3e 2e48 4fbe 1922 a9be a296 04be
000000d0: 24c2 82be 2681 8c3e 0864 723e 0729 c03e
000000e0: e217 203e 1e09 c5bd 9ac1 ad3e 7e43 95be
000000f0: 1559 72be 525e fdbe 0635 e7bd 257b e1bd
00000100: aeef b13d 09dc aebd d56c 8b3e f7e4 68be
00000110: 25f2 71be e184 4cbe a8de ac3e 78c7 da3d
00000120: 13b6 a73e 1bd8 ebbe 3831 0abf c148 9abe
00000130: ffe7 e1be 64e9 5ebd e6b3 c23e 4fa3 c73e
00000140: 72a6 29be 3a88 69be e692 363e f44a 09be
00000150: 1cb8 4c3e 4b78 a0bd 1288 433e 41c8 84be
00000160: 1c20 2cbe 1c16 ce3d 1948 c23e f9bf 1b3e
00000170: af23 1a3e 9617 fe3e 7c06 fbbe 759f 34bf
00000180: 76ed 243f 0916 2ebe f6ac fabe db22 a5be
00000190: b078 43be 5c88 aa3d f836 34bd e3c4 77be
000001a0: e01a 003c 9328 69be 04cb 90be a3f5 3bbe
000001b0: f10a f2be 617f abbe d5a3 b93e a99b 69be
000001c0: 64a6 35be 8e10 08bf 8688 cebe 17bd bfbe
000001d0: c309 99bd 019f f3be 6d93 cdbe 5eb3 b6be
000001e0: 156f abbe b572 ebbe b252 b3be 2462 f6be
000001f0: cd56 16bf 42cb f5be fc2d bbbc 2208 dabe
00000200: afa8 c73e d0ae 84be 3c03 683e b3df 853e
00000210: 2713 b9be 15b7 a53e 5399 42be 74bc 02be
00000220: 8ca1 8dbe 839c a9be 93fb c43d 714a 94bd
00000230: 1f35 053e 5a13 8cbe 37bc 7e3e f593 7abe

conv_block_1.0.bias f4 [16]
0.048291605 -0.027880741 0.240115 0.16077375 0.106122755 -0.2623817 0.09157239 -0.13709614
0.030443994 -0.24991137 0.27434736 -0.24465017 0.14918432 0.24478674 0.14240524 -0.17846304
00000000: 6bcd 453d 2766 e4bc b5e0 753e e0a1 243e
00000010: e356 d93d e556 86be 4e8a bb3d ee62 0cbe
00000020: af65 f93c c4e8 7fbe 4277 8c3e 9385 7abe
00000030: c6c3 183e 60a9 7a3e aed2 113e 04bf 36be

conv_block_1.2.weight f4 [16, 16, 3, 3]
0.07170083 0.0129397325 0.003457294 -0.07552949 0.030436834 -0.021571977 -0.039813455 0.06611094
0.009270314 -0.049573936 -0.04631642 -0.01092035 0.0434287 -0.025265075 -0.054303948 -0.029446406
-0.06474838 0.018706724 0.062941186 -0.079617314 0.019121343 0.04014655 0.011987526 -0.031145094
0.04075481 0.04198465 0.030511018 -0.016439613 -0.02350846 0.0067597544 -0.016426709 -0.026463127
0.05045104 0.06978317 -0.013392486 -0.021868916 -0.0025633522 -0.009042545 0.015122975 0.019753216
-0.079281695 -0.036452316 0.06625573 0.027569948 -0.013322884 -0.050236467 -0.050983757 -0.07466968
-0.027162181 0.028137987 0.053115264 0.038468797 -0.07370631 -0.050110325 -0.015701596 0.077215165
0.008651155 -0.02414337 0.030996816 -0.035942677 -0.055845693 0.05895794 -0.03869457 -0.016972626
-0.08306923 0.055431057 0.06313675 0.030337373 -0.058212955 -0.08230576 -0.06769016 0.062230606
0.039020225 0.06832345 0.04256171 0.021053951 -0.00080805685 -0.06363649 -0.07149534 -0.07813266
0.03172442 -0.04089719 -0.016771069 -0.047923878 -0.015196534 -0.05865743 -0.054523677 0.027643092
-0.024788197 0.05144215 -0.029069964 -0.06301194 -0.015453441 -0.046673812 -0.029814038 -0.079662174
0.03890037 -0.061727002 0.04146804 0.037815355 0.059536062 -0.063921005 0.059933074 -0.03939597
0.030922435 0.078259565 -0.011752658 -0.00064445287 -0.019394262 -0.06964333 0.039945126 -0.08553675
0.048932005 0.06072306 0.07597478 -0.021917405 -0.06856965 0.018286817 0.04621497 -0.08290162
-0.02162092 -0.051760368 -0.0077346643 -0.04402644 -0.0341158 -0.02640263 -0.08202578 0.06308241
0.0634968 -0.017859967 -0.014836952 -0.04102047 -0.077692814 -0.084300175 0.019792354 -0.045753095
-0.053573303 -0.00650416 -0.02775336 -0.026962018 0.0026764926 -0.017676033 -0.028692704 -0.03998168
-0.039682712 0.053777486 -0.036103655 0.05130434 -0.05980207 -0.03473512 0.15360054 0.05672337
-0.13874084 0.04601063 0.058847975 -0.0017044137 0.10326529 0.045504816 -0.06014326 0.08884533
-0.055716906 -0.03987054 0.051993426 0.034511484 -0.058474656 -0.07309798 -0.06574497 -0.078536145
-0.06452793 -0.017464692 0.066900864 -0.016383326 -0.08866854 -0.09077485 0.0607449 -0.030796776
0.004260556 0.014854075 -0.025954627 0.01913154 0.0016742399 -0.033954404 -0.077366665 0.0027318909
-0.051851038 -0.082315676 0.15682143 -0.018574977 -0.08949892 0.020198107 0.022890339 0.04573767
0.06333482 0.046361305 -0.08265626 0.007152524 0.050517738 -0.0076727164 -0.046173412 0.09019111
-0.018325016 -0.048718143 -0.073207326 -0.0110026235 0.054860834 0.009936189 -0.0057102335 -0.06447984
-0.07784602 0.003644708 0.087393776 0.052880973 -0.04657721 -0.0046497383 -0.04881965 -0.03641689
0.0009961834 0.016667955 0.046248883 -0.056524932 0.07007618 -0.051598996 0.00956185 0.079546385
0.007933005 0.075842954 -0.07105535 -0.03170896 0.04862266 -0.01828507 -0.016950028 -0.034784243
0.05742112 0.040897354 0.005576726 -0.034490313 -0.101582475 0.033364218 0.13417062 -0.05508125
-0.039008394 0.15035987 0.01368572 0.003759861 -0.020508379 -0.07546581 -0.07835479 -0.03983459
-0.04236012 0.0259628 -0.024259232 -0.032601845 0.07433026 0.022465367 0.048149783 -0.04320755
00000000: e2d7 923d 2c01 543c c593 623b 35af 9abd
00000010: ab56 f93c b7b7 b0bc 6f13 23bd 2c65 873d
00000020: 84e2 173c 0a0e 4bbd 49b6 3dbd 45eb 32bc
00000030: 4be2 313d b4f8 cebc d16d 5ebd 9739 f1bc
00000040: cc9a 84bd d83e 993c 4fe7 803d 670e a3bd
00000050: 5da4 9c3c b570 243d 5467 443c ff23 ffbc
00000060: 84ee 263d 19f8 2b3d 3ef2 f93c 5eac 86bc
00000070: d094 c0bc ee80 dd3b 4e91 86bc 33c9 d8bc
00000080: c0a5 4e3d 7bea 8e3d 286c 5bbc 7126 b3bc
00000090: eafd 27bb 2f27 14bc 5bc6 773c 7fd1 a13c
000000a0: 715e a2bd 064f 15bd 16b1 873d 5fda e13c
000000b0: 3a48 5abc c1c4 4dbd 58d4 50bd 6bec 98bd
000000c0: 3983 debc a381 e63c 648f 593d 7591 1d3d
000000d0: 55f3 96bd 7c40 4dbd a2a0 80bc fc22 9e3d
000000e0: 93bd 0d3c 51c8 c5bc 09ed fd3c a138 13bd
000000f0: 74be 64bd e27d 713d 337e 1ebd 2d0a 8bbc
00000100: 3320 aabd ad0b 633d d74d 813d 1586 f83c
00000110: b570 6ebd ec8f a8bd 23a1 8abd 85e5 7e3d
00000120: acd3 1f3d 2aed 8b3d 3055 2e3d 5679 ac3c
00000130: c7d3 53ba d953 82bd 266c 92bd 0404 a0bd
00000140: 77f1 013d d083 27bd 7b63 89bc d44b 44bd
00000150: e2fa 78bc c642 70bd 3854 5fbd c473 e23c
00000160: 9e10 cbbc 01b5 523d 2224 eebc 670c 81bd
00000170: 6e30 7dbc 0a2d 3fbd 923c f4bc ec25 a3bd
00000180: ff55 1f3d 74d5 7cbd 64da 293d 46e4 1a3d
00000190: 16dc 733d 04e9 82bd 627c 753d ab5d 21bd
000001a0: 0c51 fd3c 8d46 a03d 388e 40bc 80f0 28ba
000001b0: b7e0 9ebc 2aa1 8ebd 809d 233d e42d afbd
000001c0: ed6c 483d beb8 783d aa98 9b3d 218c b3bc
000001d0: 3f6e 8cbd 3cce 953c e94b 3d3d 53c8 a9bd
000001e0: 5b1e b1bc ae02 54bd 1173 fdbb 1155 34bd
000001f0: 02bd 0bbd 544a d8bc 22fd a7bd 5a31 813d
00000200: 9c0a 823d 114f 92bc b016 73bc 1505 28bd
00000210: 691d 9fbd 92a5 acbd 9323 a23c 9967 3bbd
00000220: ae6f 5bbd d920 d5bb 045b e3bc 73df dcbc
00000230: 1868 2f3b 54cd 90bc f60c ebbc d5c3 23bd
00000240: 578a 22bd c845 5c3d 6de1 13bd 8024 523d
00000250: 04f3 74bd 6a46 0ebd 7649 1d3e c456 683d
00000260: 1412 0ebe a475 3c3d 930a 713d a266 dfba
00000270: c17c d33d 4263 3a3d c758 76bd 8af4 b53d
00000280: 6937 64bd 4b4f 23bd 0ff7 543d ea5b 0d3d
00000290: 1f83 6fbd 65b4 95bd 4da5 86bd 8fd7 a0bd
000002a0: 3827 84bd 1d12 8fbc 5203 893d 5336 86bc
000002b0: da97 b5bd 2ae8 b9bd a5cf 783d 8549 fcbc
000002c0: 229c 8b3b 825e 733c cc9e d4bc bfb9 9c3c
000002d0: 2b72 db3a c613 0bbd 6a72 9ebd 8609 333b
000002e0: c161 54bd 1f95 a8bd cc95 203e 8d2a 98bc
000002f0: 364b b7bd 8076 a53c 8584 bb3c 6c57 3b3d
00000300: b0b5 813d 5ae5 3d3d af47 a9bd b85f ea3b
00000310: b0eb 4e3d 696b fbbb 5520 3dbd 1eb6 b83d
00000320: 581e 96bc ad8c 47bd b9ed 95bd 5944 34bc
00000330: c1b5 603d 66cb 223c e91c bbbb 020e 84bd
00000340: bc6d 9fbd 0edc 6e3b 82fb b23d b899 583d
00000350: bfc7 3ebd d55c 98bb 1df7 47bd e029 15bd
00000360: 5e92 823a 3c8b 883c 786f 3d3d b086 67bd
00000370: 1a84 8f3d 7859 53bd 4ea9 1c3c 37e9 a23d
00000380: 6ff9 013c 8d53 9b3d 7885 91bd 41e1 01bd
00000390: 8e28 473d 92ca 95bc c9da 8abc ec79 0ebd
000003a0: 6932 6b3d fc83 273d f8bc b63b b745 0dbd
000003b0: 790a d0bd eba8 083d 0664 093e e09c 61bd
000003c0: 44c7 1fbd f0f7 193e 123a 603c 0068 763b
000003d0: 3001 a8bc d28d 9abd 7a78 a0bd 9829 23bd
000003e0: ce81 2dbd f0af d43c 4cbb c6bc 8389 05bd
000003f0: 773a 983d 4a09 b83c b538 453d 66fa 30bd

conv_block_1.2.bias f4 [16]
-0.012998244 -0.060458973 0.53457713 -0.0413419 0.026824184 -0.10022007 0.2610169 -0.021178825
-0.042919554 0.32229528 0.08049311 0.15237807 0.17311601 -0.012474786 -0.0012503434 0.15203156
00000000: 96f6 54bc d4a3 77bd 0cda 083f 2056 29bd
00000010: 64be db3c 2e40 cdbd 02a4 853e 377f adbc
00000020: 6acc 2fbd e303 a53e 92d9 a43d ff08 1c3e
00000030: 5345 313e 0b63 4cbc 90e2 a3ba 29ae 1b3e

conv_block_2.0.weight f4 [16, 16, 3, 3]
-0.022343168 -0.02743971 0.051263746 -0.027439503 -0.024023911 -0.058944385 -0.039409462 0.04519275
0.053510472 -0.010109994 -0.07350617 0.07117018 0.018494952 -0.06663235 -0.03875236 -0.031624395
-0.012746797 -0.0053576683 0.11977006 0.07098787 0.16992627 0.110755354 0.011572757 -0.1009462
-0.017404538 -0.036745593 -0.14998811 -0.004645494 0.00084606576 -0.021622 -0.056548275 0.07565691
-0.02764373 0.04001961 0.058022022 -0.054806545 -0.029042717 -0.050656117 -0.05980866 -0.12785842
0.0716194 -0.0044987 -0.094400965 0.08985598 -0.018661732 0.08219106 0.0060323607 -0.034632433
0.07885214 0.07303423 0.0076336632 -0.051079936 -0.004092727 -0.04047324 0.11414876 0.10306835
0.0114230495 0.11885645 0.035718508 -0.16508053 0.099669054 0.04979844 -0.09742962 -0.050486207
-0.053775296 -0.106932685 -0.18842238 -0.08846029 -0.13413526 -0.051613078 -0.020415932 -0.09935697
0.07743866 -0.030725056 0.014549376 -0.05666688 -0.0029036466 0.034078248 0.035606608 -0.0038250813
-0.04315247 0.12850085 0.1738092 0.0034096027 0.08832905 0.037499357 -0.12375467 0.1457384
-0.00057927106 -0.061641503 0.14599289 0.10610184 -0.20285577 0.19263323 -0.13290413 -0.43489465
0.059533317 -0.36687642 -0.3011954 0.11188764 0.039085485 0.07639065 0.29474714 0.053866204
-0.13883212 -0.026161939 -0.050932694 -0.21669215 0.14704224 -0.020231757 -0.064581536 0.09391043
0.027067807 -0.10098954 0.09162296 0.016124943 0.018768912 0.108293876 -0.09229096 -0.30876067
-0.12586218 -0.021484872 -0.011042588 0.108039945 0.07804855 0.045308948 -0.031678595 -0.11510923
-0.03508905 -0.021414595 0.053550478 0.0168148 0.059820764 -0.10189926 -0.09687398 0.081727244
0.10896144 0.01650902 0.094718516 -0.068847835 -0.07222206 -0.014648021 -0.04325227 -0.01999507
-0.052548826 0.07572403 -0.045411333 0.026986253 0.049143076 -0.06499012 0.04262726 -0.011118961
0.042941052 0.07944115 -0.06432499 -0.044973962 0.070154905 -0.008773695 -0.023793489 0.058058783
-0.031522587 -0.008894604 0.040227793 0.12739563 -0.022763653 -0.055939645 -0.075200655 0.010532635
0.047711864 -0.13583544 -0.13146055 0.0063022776 0.020457564 -0.05186571 -0.055108592 -0.08091198
0.020625176 -0.05265991 0.006784609 -0.018782321 -0.16339816 -0.1515784 -0.042043757 0.114407256
0.043293457 -0.06929987 -0.09586739 0.05983304 -0.051859185 -0.03712059 -0.0027232696 0.06211131
-0.069867656 -0.043987483 -0.059849318 -0.0066280006 -0.0029258213 -0.06415301 0.03158672 -0.07139866
0.039460864 -0.25439206 -0.10044805 0.091903575 -0.12572795 0.012925562 0.035636485 0.04662678
-0.119763725 -0.023953035 0.16264978 0.19973768 -0.00078743586 -0.15063383 0.1481461 -0.016247906
0.058853585 -0.043071747 -0.038879275 -0.07015813 0.077712536 0.014732169 -0.06180739 0.006752092
-0.0361359 -0.018586287 0.004532229 -0.0764557 -0.16604613 -0.06932753 0.14090666 -0.24471346
-0.045562323 0.16067284 0.110945575 -0.018828494 -0.13056335 0.01901544 0.33719105 0.15165636
-0.22994241 0.22611497 0.23483631 -0.08525762 0.06435482 -0.07200768 -0.1452429 -0.18505391
0.10457956 -0.014452765 -0.11537443 0.013249312 -0.10518029 0.081680216 0.018570447 -0.27327207
00000000: 0509 b7bc 3ec9 e0bc eff9 513d cfc8 e0bc
00000010: cbcd c4bc ab6f 71bd d16b 21bd 081c 393d
00000020: cc2d 5b3d 63a4 25bc 678a 96bd acc1 913d
00000030: ba82 973c 8b76 88bd cbba 1ebd 9588 01bd
00000040: f1d7 50bc 618f afbb 014a f53d 1762 913d
00000050: 2701 2e3e b4d3 e23d a99b 3d3c e2bc cebd
00000060: f693 8ebc 8c82 16bd 7c96 19be 3a39 98bb
00000070: 83ca 5d3a 9f20 b1bc 2a9f 67bd 03f2 9a3d
00000080: 1b75 e2bc 9aeb 233d 80a8 6d3d d47c 60bd
00000090: feea edbc ca7c 4fbd edf9 74bd 51ed 02be
000000a0: 31ad 923d d569 93bb 4b55 c1bd 6906 b83d
000000b0: 7de0 98bc c953 a83d 1cab c53b bdda 0dbd
000000c0: 3b7d a13d f892 953d cf23 fa3b 3239 51bd
000000d0: 481c 86bb 45c7 25bd d3c6 e93d 8015 d33d
000000e0: be27 3b3c 036b f33d 924d 123d df0a 29be
000000f0: 4a1f cc3d 73f9 4b3d 2e89 c7bd a0ca 4ebd
00000100: 7c43 5cbd 86ff dabd ccf1 40be ab2a b5bd
00000110: c15a 09be 3c68 53bd 503f a7bc ab7b cbbd
00000120: 2998 9e3d 1db3 fbbc 8260 6e3c 881b 68bd
00000130: 1b4b 3ebb a295 0b3d 3cd8 113d 37ae 7abb
00000140: a5c0 30bd ba95 033e 0afb 313e a473 5f3b
00000150: dce5 b43d ed98 193d 1773 fdbd 723c 153e
00000160: 39da 17ba cd7b 7cbd 297f 153e ec4b d93d
00000170: 6cb9 4fbe a541 453e 0518 08be 83aa debe
00000180: 35d9 733d 3ad7 bbbe 4936 9abe 5925 e53d
00000190: 1a18 203d b372 9c3d 19e9 963e cfa2 5c3d
000001a0: 022a 0ebe 9051 d6bc cd9e 50bd 8ce4 5dbe
000001b0: 3e92 163e 12bd a5bc 5343 84bd 1d54 c03d
000001c0: 4ebd dd3c 9bd3 cebd d2a4 bb3d 7518 843c
000001d0: 43c1 993c 2ec9 dd3d 0b03 bdbd e115 9ebe
000001e0: 04e2 00be 0b01 b0bc f9eb 34bc 0c44 dd3d
000001f0: ebd7 9f3d e095 393d 6ac1 01bd 63be ebbd
00000200: 89b9 0fbd a96d afbc bf57 5b3d 31bf 893c
00000210: 9e06 753d 8fb0 d0bd dd65 c6bd 9d60 a73d
00000220: 2d27 df3d ed3d 873c c8fb c13d 1800 8dbd
00000230: 29e9 93bd 41fe 6fbc 4b29 31bd b3cc a3bc
00000240: 703d 57bd 3315 9b3d 3c01 3abd 4612 dd3c
00000250: 404a 493d 8a19 85bd ec99 2e3d 4d2c 36bc
00000260: f5e2 2f3d 0bb2 a23d d2bc 83bd 9e36 38bd
00000270: 60ad 8f3d 8bbf 0fbc 90ea c2bc 0ccf 6d3d
00000280: d41d 01bd acba 11bc e6c5 243d 0074 023e
00000290: d77a babc f820 65bd cd02 9abd 1391 2c3c
000002a0: 846d 433d 7218 0bbe 989d 06be 5683 ce3b
000002b0: 9f96 a73c 2471 54bd 8cb9 61bd 2eb5 a5bd
000002c0: 21f6 a83c ebb1 57bd 6d51 de3b 62dd 99bc
000002d0: d951 27be 5e37 1bbe 1336 2cbd 5a4e ea3d
000002e0: 7b54 313d 17ed 8dbd 1f56 c4bd 7d13 753d
000002f0: 4c6a 54bd c30b 18bd e278 32bb 6e68 7e3d
00000300: c616 8fbd 382c 34bd 8f24 75bd b32f d9bb
00000310: 23bf 3fbb a762 83bd 1461 013d 7639 92bd
00000320: b7a1 213d ad3f 82be b5b7 cdbd f137 bc3d
00000330: d4be 00be bdc5 533c 90f7 113d b9fb 3e3d
00000340: af46 f5bd 2839 c4bc aa8d 263e 0988 4c3e
00000350: ed6b 4eba c13f 1abe 9cb3 173e 541a 85bc
00000360: 7510 713d 006c 30bd e03f 1fbd 11af 8fbd
00000370: c027 9f3d 325f 713c bf29 7dbd a740 dd3b
00000380: 3d03 14bd 4542 98bc 1883 943b ce94 9cbd
00000390: ff07 2abe 98fb 8dbd d649 103e 2a96 7abe
000003a0: 8f9f 3abd 6c87 243e 6f37 e33d 373e 9abc
000003b0: 66b2 05be 45c6 9b3c 4ea4 ac3e ce4b 1b3e
000003c0: 0676 6bbe af8a 673e ee78 703e 8c9b aebd
000003d0: 76cc 833d c378 93bd 8eba 14be c67e 3dbe
000003e0: cf2d d63d 4acb 6cbc 6e49 ecbd a413 593c
000003f0: c468 d7bd f547 a73d 0d21 983c 51ea 8bbe

conv_block_2.0.bias f4 [16]
0.09951791 -0.054786477 -0.07716745 0.14253926 0.112224154 -0.13039267 0.22102858 0.12827882
0.37477788 0.48096985 0.14819138 -0.020009596 0.0009306893 -0.09367139 -0.12979059 0.26588953
00000000: 0cd0 cb3d c967 60bd f809 9ebd d0f5 113e
00000010: c7d5 e53d a885 05be 5155 623e 865b 033e
00000020: e3e2 bf3e ae41 f63e 7bbf 173e 2aeb a3bc
00000030: 80f9 733a c9d6 bfbd d3e7 04be ac22 883e

conv_block_2.2.weight f4 [16, 16, 3, 3]
0.14529112 0.03359859 -0.122262634 -0.04773936 -0.067670174 -0.04841096 -0.2499025 -0.03471826
-0.019204054 -0.08226818 -0.1782233 0.100612484 -0.05104101 -0.10450277 -0.08064442 0.021710793
-0.01989288 -0.2773599 0.0712816 0.079194225 0.0055704406 -0.101134665 -0.008389998 0.014844718
-0.19810493 -0.09592651 -0.120325685 0.046039097 -0.40531316 -0.3159523 0.16212893 0.14358528
-0.3131586 -0.28011236 0.35932904 0.0797787 0.13630927 0.13127263 -0.03638229 -0.027811088
0.06899561 -0.033737615 0.02833764 -0.22193624 0.07512403 0.024262099 -0.022444777 0.03274273
-0.08021289 -0.04138831 -0.041185472 0.057086427 0.028031513 0.008568203 0.19953677 0.063849315
-0.15916711 0.025232878 0.22551966 0.06530151 -0.21579574 0.010097508 0.06351991 0.28336802
0.0101410495 -0.15058927 0.09991301 0.15920539 -0.2225729 -0.29329163 0.113130346 -0.07940522
-0.06427551 -0.035197135 -0.12292511 -0.31412998 -0.0846253 -0.0005602914 -0.24552415 -0.22283421
-0.01832374 -0.17463021 -0.10836645 -0.10408829 -0.35951522 -0.19455767 -0.014774118 -0.08701162
-0.102604814 -0.09194048 -0.13839501 -0.197607 -0.16553819 0.084046446 -0.098524794 -0.08163241
-0.31557813 0.11636196 0.065549694 -0.040283356 -0.0775947 -0.06787175 -0.01967497 -0.0024784373
0.007075679 -0.0067554414 0.04473385 -0.054489356 -0.11285105 -0.11421781 0.112115644 -0.062485494
-0.06499286 0.2154092 -0.09212185 -0.17728974 -0.08958935 -0.07163898 0.058422565 -0.034820165
-0.0127013065 -0.07491928 -0.0227772 0.07061942 0.015699375 -0.013672782 0.04778134 0.063287385
0.05536067 -0.047816355 0.0048925513 -0.06787975 -0.07022418 0.059484847 -0.12022976 -0.16783641
0.09792673 0.038431995 -0.39214084 0.0971484 0.25161964 0.12506598 0.014419312 0.23203667
-0.023798428 -0.044409808 0.10131912 -0.10096653 -0.01691939 0.06405266 -0.06462101 0.0019894647
0.0025772993 0.23975736 -0.0092994915 -0.029056093 0.22215709 0.0879224 -0.09092664 0.03246597
0.012584562 -0.063881464 0.077372484 0.059686087 0.030189237 -0.027983561 -0.05591653 0.118622735
-0.045471568 -0.10296634 -0.14693305 0.049841795 0.02628552 -0.052549142 -0.119838305 0.044732407
0.06338857 -0.059611987 -0.099906474 0.087070264 -0.05996655 0.036333952 -0.059547797 -0.07094069
-0.076464325 0.121088825 0.07657317 -0.07565755 0.116444245 -0.052624892 -0.08850858 0.03893044
0.045401365 0.03686402 0.010617463 0.084394164 -0.07413895 0.037027396 -0.054763198 -0.006137069
0.09124739 -0.083051436 0.021829838 0.03324538 0.09065983 0.056638192 0.15801954 0.014519839
-0.13440906 -0.09632091 0.027048603 -0.12531504 0.02651123 0.014608879 -0.06769689 0.048396252
0.06456109 -0.06096513 -0.07682196 -0.0074910414 -0.0030462747 -0.098821655 -0.08988347 -0.088091396
-0.0798458 0.09918783 0.027077934 -0.074196085 -0.040465675 -0.018871296 -0.23679383 -5.7598936e-05
-0.06536712 -0.21090405 -0.15382406 -0.0074572642 -0.11455716 -0.034669697 -0.132118 -0.11176401
-0.10385932 0.024759095 -0.12011681 0.08721687 0.007787035 0.09555978 0.0571441 0.042231757
0.063996755 -0.038933963 -0.04889442 0.015771834 0.051311135 -0.03960079 -0.07723649 -0.08163372
00000000: 32c7 143e ad9e 093d d564 fabd 598a 43bd
00000010: a996 8abd 924a 46bd 71e6 7fbe bc34 0ebd
00000020: d251 9dbc 387c a8bd 2b80 36be eb0d ce3d
00000030: 6110 51bd 8c05 d6bd e728 a5bd d5da b13c
00000040: 65f6 a2bc 1e02 8ebe 16fc 913d 9530 a23d
00000050: 3e88 b63b b11f cfbd 3476 09bc 4337 733c
00000060: 05dc 4abe 1e75 c4bd 506d f6bd 7e93 3c3d
00000070: 3585 cfbe 80c4 a1be 2005 263e 0508 133e
00000080: 5356 a0be e36a 8fbe faf9 b73e 0463 a33d
00000090: a894 0b3e 556c 063e 9905 15bd 14d4 e3bc
000000a0: 924d 8d3d 7430 0abd 5724 e83c 4143 63be
000000b0: a1da 993d 4fc1 c63c 1cde b7bc 3e1d 063d
000000c0: a846 a4bd ca86 29bd 19b2 28bd 75d3 693d
000000d0: 58a2 e53c a661 0c3c 5e53 4c3e 6ec3 823d
000000e0: b4fc 22be 2eb5 ce3c a0ee 663e ccbc 853d
000000f0: 8ff9 5cbe 0570 253c ba16 823d 9d15 913e
00000100: a526 263c 1334 1abe 319f cc3d bd06 233e
00000110: 26ea 63be 522a 96be e2b0 e73d 349f a2bd
00000120: e1a2 83bd df2a 10bd 29c0 fbbd a5d5 a0be
00000130: 0750 adbd 85e0 12ba af6a 7bbe a72e 64be
00000140: ab1b 96bc 43d2 32be 3bef ddbd 3e2c d5bd
00000150: 6112 b8be 203a 47be 240f 72bc 2633 b2bd
00000160: 7922 d2bd 4a4b bcbd 6cb7 0dbe 7d59 4abe
00000170: d882 29be 8b20 ac3d 5ec7 c9bd e52e a7bd
00000180: 7593 a1be 2e4f ee3d eb3e 863d 2900 25bd
00000190: f8e9 9ebd 5800 8bbd 672d a1bc 476d 22bb
000001a0: 19db e73b c05c ddbb d73a 373d 3b30 5fbd
000001b0: 741e e7bd 07eb e9bd e39c e53d caf0 7fbd
000001c0: fa1a 85bd 3b94 5c3e 61aa bcbd 718b 35be
000001d0: 9f7a b7bd 75b7 92bd 804c 6f3d 979f 0ebd
000001e0: 2419 50bc 486f 99bd 4097 babc eaa0 903d
000001f0: fa9b 803c ce03 60bc 5eb6 433d d19c 813d
00000200: dfc1 623d 15db 43bd b251 a03b 8a04 8bbd
00000210: b2d1 8fbd 62a6 733d 053b f6bd 4fdd 2bbe
00000220: cf8d c83d de6a 1d3d afc6 c8be bef5 c63d
00000230: 4ad4 803e 4c11 003e fa3e 6c3c 059b 6d3e
00000240: ecf4 c2bc 0fe7 35bd 6680 cf3d 8ac7 cebd
00000250: 889a 8abc 0a2e 833d 0558 84bd ae61 023b
00000260: e8e7 283b f482 753e e55c 18bc 0b07 eebc
00000270: 267d 633e a910 b43d bf37 babd 09fb 043d
00000280: 7b2f 4e3c 49d4 82bd 7775 9e3d 6679 743d
00000290: 6b4f f73c c83d e5bc bb08 65bd 7af0 f23d
000002a0: 6540 3abd 04e0 d2bd 9e75 16be e926 4c3d
000002b0: bb54 d73c c53d 57bd c96d f5bd 5439 373d
000002c0: ded1 813d b32b 74bd c49b ccbd e551 b23d
000002d0: 7c9f 75bd e9d2 143d 64e8 73bd 5a49 91bd
000002e0: 5499 9cbd 6bfd f73d 65d2 9c3d 58f2 9abd
000002f0: 527a ee3d 338d 57bd fd43 b5bd 8675 1f3d
00000300: c8f6 393d bafe 163d def4 2d3c d9d6 ac3d
00000310: 29d6 97bd 0aaa 173d 604f 60bd 7719 c9bb
00000320: e9df ba3d df16 aabd 7dd4 b23c 4f2c 083d
00000330: dcab b93d 73fd 673d e0cf 213e 9ee4 6d3c
00000340: 87a2 09be e643 c5bd 0895 dd3c 9652 00be
00000350: 142e d93c 145a 6f3c aba4 8abd 263b 463d
00000360: 9b38 843d 92b6 79bd d554 9dbd 6977 f5bb
00000370: 02a4 47bb 0263 cabd d314 b8bd 4369 b4bd
00000380: 3286 a3bd fd22 cb3d 8bd2 dd3c 1ef4 97bd
00000390: 56bf 25bd fa97 9abc 157a 72be 6396 71b8
000003a0: 32df 85bd 3bf7 57be 0e84 1dbe 115c f4bb
000003b0: f29c eabd d001 0ebd f149 07be 87e4 e4bd
000003c0: 32b4 d4bd 96d3 ca3c cdff f5bd c29e b23d
000003d0: 622a ff3b d9b4 c33d ef0f 6a3d 35fb 2c3d
000003e0: bb10 833d 3879 1fbd 8445 48bd ef33 813c
000003f0: a02b 523d 7034 22bd 2a2e 9ebd 942f a7bd

conv_block_2.2.bias f4 [16]
0.05524532 -0.14581859 0.30973044 0.18097201 0.1409968 0.010782154 0.06803376 -0.08728697
-0.105685376 -0.0120875 0.007913058 -0.11893944 -0.16418688 0.20566852 0.024431836 -0.024360381
00000000: eb48 623d 7851 15be fd94 9e3e ba50 393e
00000010: 7761 103e a2a7 303c 4955 8b3d 83c3 b2bd
00000020: 9371 d8bd a60a 46bc c5a5 013c 8596 f3bd
00000030: 9b20 28be c59a 523e 4625 c83c 6c8f c7bc

classifier.1.weight f4 [10, 784]
0.023426522 0.023737151 0.21011715 0.15222058 -0.19653226 -0.10860753 0.304527 -0.1325891
-0.01771357 0.12508987 0.033498313 -0.085367195 -0.018803366 0.05763843 -0.31324652 -0.107837066
0.13917424 0.047092084 -0.14491352 -0.2681076 0.18767695 0.04654948 -0.047401853 -0.043776523
0.008434678 -0.036569025 0.10938091 -0.036556445 0.16374385 -0.03619595 -0.058151815 -0.02347281
0.12522374 0.32621455 0.0029133498 0.12088052 -0.029161336 -0.021826677 -0.04303073 -0.058917813
0.26681527 0.07233384 0.11369579 -0.054724004 -0.055075053 -0.019705322 0.078751706 0.33865657
0.10183739 0.013615424 0.015906857 0.07300385 0.005553674 0.028632402 0.032568093 0.014463397
0.017858466 0.0584317 -0.00085531524 0.03669625 0.023451626 0.043328844 0.059026804 0.043385003
0.005485594 0.05407103 0.0004981503 -0.0067790686 0.016667692 0.045485783 -0.033506818 -0.02524432
0.054285005 -0.004538049 0.0046968046 0.03904523 -0.008849719 -0.010718385 -0.033885263 -0.03706621
-0.020436987 0.010027014 -0.020201083 0.01783276 -0.048785824 -0.038976237 -0.04313201 0.04263109
0.05388409 -1.2648382e-05 -0.0054599526 -0.06194035 -0.033221733 -0.14965613 0.10196687 0.042094186
-0.034867 -0.020713901 -0.036628198 0.05269122 -0.05493735 -0.10582632 0.111320876 -0.066023365
0.14983974 0.114246406 -0.1105286 -0.078107156 -0.06779892 0.15661784 0.1695429 0.008822502
0.20429856 0.2539233 0.1046283 -0.114304855 -0.0109059345 0.1553832 0.054410633 0.00073466013
0.0013852848 0.22768737 -0.1813229 -0.00023276643 0.13556491 -0.024476368 -0.030107467 0.0053567137
0.015831713 -0.15510294 -0.02887647 0.0940982 -0.1572984 -0.1093762 0.1944056 -0.059729453
-0.17932802 -0.08782559 -0.11513197 -0.05690887 -0.06543887 0.16223118 -0.020160126 -0.08289584
-0.18445513 -0.15665105 0.010927307 -0.1488349 -0.15693083 -0.0036296255 0.0607652 0.04401575
-0.14793067 -0.03963758 -0.113672785 -0.16738765 -0.0011092094 0.027108027 -0.04482193 -0.1353181
-0.046728205 -0.078875765 -0.21754603 -0.06512142 0.05098224 0.016693788 -0.11538023 -1.9825993e-05
0.3664048 0.059597474 -0.0048516667 0.008221624 0.048870023 0.14723296 0.2095425 0.2921907
-0.06946707 -0.0017469355 0.03362788 0.06278421 0.12225651 0.16677825 0.23561254 -0.25340718
0.039686084 0.003827337 0.04008029 0.082926854 0.116034895 0.06612222 -0.1436994 0.014167607
-0.057530034 -0.020473389 0.14966328 -0.0072711576 -0.014430241 0.12721226 0.149683 0.020873854
0.01780667 0.09547953 -0.03286699 0.03843264 0.21720342 -0.07809953 -0.01453442 -0.08579413
-0.04258193 -0.055642452 -0.10925863 -0.07937753 0.123423785 -0.07692414 0.049002808 0.0034336797
-0.051193167 -0.043645117 -0.027557261 0.11728173 -0.06040149 0.018382026 0.15763143 0.08366094
-0.08833494 0.08200269 -0.046734776 -0.10832331 -0.03287386 0.057436176 0.10734583 -0.14660886
0.011450294 -0.13012034 -0.081636935 -0.13093211 -0.10854652 0.07923148 -0.15475708 0.062039733
-0.09962583 0.042503137 -0.07973648 -0.091407456 0.087363966 0.096876524 0.004674587 -0.023109837
0.14223656 -0.0031245688 0.23179607 0.0339728 0.097111225 -0.11946529 -0.17295595 0.15051194
00000000: fae8 bf3c 6a74 c23c f328 573e b6df 1b3e
00000010: c13f 49be a06d debd f7ea 9b3e 70c5 07be
00000020: 0c1c 91bc 8f17 003e 8735 093d ffd4 aebd
00000030: 8409 9abc 4616 6c3d d961 a0be aed9 dcbd
00000040: b183 0e3e a1e3 403d 3664 14be 6645 89be
00000050: 632e 403e abaa 3e3d 7228 42bd 034f 33bd
00000060: 9b31 0a3c 67c9 15bd 1903 e03d 36bc 15bd
00000070: 78ac 273e 3442 14bd 9930 6ebd 0d4a c0bc
00000080: a73a 003e 9805 a73e e6ed 3e3b 3590 f73d
00000090: c1e3 eebc dccd b2bc fe40 30bd ce53 71bd
000000a0: 039c 883e c423 943d 57d9 e83d 4726 60bd
000000b0: 6196 61bd 0e6d a1bc 9348 a13d 6564 ad3e
000000c0: 1f90 d03d 3a13 5f3c 194f 823c 0b83 953d
000000d0: 98fb b53b 808e ea3c 1f66 053d e2f7 6c3c
000000e0: eb4b 923c 1456 6f3d 3c37 60ba cf4e 163d
000000f0: a01d c03c 9679 313d 17c6 713d 79b4 313d
00000100: 7fc0 b33b 9679 5d3d 4d96 023a f322 debb
00000110: af8a 883c 4d4f 3a3d 723e 09bd 2dcd cebc
00000120: f459 5e3d eab3 94bb a7e7 993b e4ed 1f3d
00000130: 69fe 10bc 2a9c 2fbc 46cb 0abd bdd2 17bd
00000140: 786b a7bc 5848 243c be7c a5bc 0216 923c
00000150: a5d3 47bd 8ca5 1fbd 31ab 30bd f09d 2e3d
00000160: 90b5 5c3d 6334 54b7 67e9 b2bb 2ab5 7dbd
00000170: 8313 08bd 753f 19be 02d4 d03d f46a 2c3d
00000180: b3d0 0ebd 33b0 a9bc 7307 16bd c0d2 573d
00000190: fd05 61bd 78bb d8bd 33fc e33d 4237 87bd
000001a0: 976f 193e 05fa e93d d25c e2bd a5f6 9fbd
000001b0: 29da 8abd 6d60 203e a79c 2d3e 418c 103c
000001c0: a433 513e 3c02 823e 5d47 d63d aa18 eabd
000001d0: ceae 32bc c61c 1f3e afdd 5e3d 3596 403a
000001e0: 7292 b53a e126 693e b6ac 39be c312 74b9
000001f0: 87d1 0a3e aa82 c8bc efa3 f6bc 5f87 af3b
00000200: 82b1 813c 4ed3 1ebe 598e ecbc 8fb6 c03d
00000210: d512 21be a100 e0bd 4312 473e dfa6 74bd
00000220: c4a1 37be e7dd b3bd 4fca ebbd 4619 69bd
00000230: d004 86bd ee1f 263e d926 a5bc 4bc5 a9bd
00000240: cee1 3cbe 2269 20be 7308 333c 2d68 18be
00000250: 7ab2 20be 03df 6dbb eee4 783d dc49 343d
00000260: 237b 17be 045b 22bd 47cd e8bd ab67 2bbe
00000270: e462 91ba a711 de3c 3397 37bd d490 0abe
00000280: 1366 3fbd 9e89 a1bd 63c4 5ebe 615e 85bd
00000290: c1d2 503d 69c1 883c 784c ecbd ff4f a6b7
000002a0: 6999 bb3e 7b1c 743d bbfa 9ebb feb3 063c
000002b0: ef2b 483d 3dc4 163e 4f92 563e 059a 953e
000002c0: c044 8ebd 6ef9 e4ba 63bd 093d 0295 803d
000002d0: 9f61 fa3d ebc7 2a3e 6a44 713e 96be 81be
000002e0: e08d 223d 0fd4 7a3b 3b2b 243d 8ed5 a93d
000002f0: b4a3 ed3d 166b 873d ef25 13be 401f 683c
00000300: 9da4 6bbd cfb7 a7bc 5541 193e e442 eebb
00000310: d16c 6cbc ee43 023e 8046 193e a5ff aa3c
00000320: 4bdf 913c c68a c33d 899f 06bd 8b6b 1d3d
00000330: 936a 5e3e a5f2 9fbd c721 6ebc d5b4 afbd
00000340: 646a 2ebd 57e9 63bd fdc2 dfbd b090 a2bd
00000350: 9cc5 fc3d 678a 9dbd 2bb7 483d 9607 613b
00000360: edaf 51bd 39c5 32bd c4bf e1bc 6731 f03d
00000370: 8e67 77bd e795 963c 226a 213e 6d56 ab3d
00000380: f3e8 b4bd 07f1 a73d f76c 3fbd 9dd8 ddbd
00000390: bea6 06bd 3242 6b3d 21d8 db3d a220 16be
000003a0: 049a 3b3c 443e 05be 4431 a7bd 1113 06be
000003b0: a34d debd 1d44 a23d a478 1ebe 601d 7e3d
000003c0: a108 ccbd c517 2e3d e14c a3bd d533 bbbd
000003d0: e1eb b23d 3367 c63d 472d 993b d750 bdbc
000003e0: 76a6 113e 91c5 4cbb f35b 6d3e 1027 0b3d
000003f0: 40e2 c63d 38aa f4bd 5d1b 31be cd1f 1a3e

classifier.1.bias f4 [10]
0.2113173 -0.13011703 0.21241401 0.1119091 -0.37991732 -0.06875888 0.07991131 0.12490827
0.020519963 -0.12838128
00000000: 9063 583e 663d 05be 0f83 593e 9930 e53d
00000010: 8684 c2be 75d1 8cbd 8aa8 a33d e8cf ff3d
00000020: 7b19 a83c 6276 03be
